unit-test/safetensors/test_norm.safetensors (safetensors, 400 bytes, 2 tensors)

norm.bias f4 [32]
000000 00 00 00 00 cd cc cc 3d cd cc 4c 3e 9a 99 99 3e
       0.0 0.1 0.2 0.3
000010 cd cc cc 3e 00 00 00 3f 9a 99 19 3f 33 33 33 3f
       0.4 0.5 0.6 0.7
000020 cd cc 4c 3f 67 66 66 3f 00 00 80 3f cd cc 8c 3f
       0.8 0.90000004 1.0 1.1
000030 9a 99 99 3f 67 66 a6 3f 33 33 b3 3f 00 00 c0 3f
       1.2 1.3000001 1.4 1.5
000040 cd cc cc 3f 9a 99 d9 3f 67 66 e6 3f 33 33 f3 3f
       1.6 1.7 1.8000001 1.9
000050 00 00 00 40 67 66 06 40 cd cc 0c 40 33 33 13 40
       2.0 2.1000001 2.2 2.3
000060 9a 99 19 40 00 00 20 40 67 66 26 40 cd cc 2c 40
       2.4 2.5 2.6000001 2.7
000070 33 33 33 40 9a 99 39 40 00 00 40 40 67 66 46 40
       2.8 2.9 3.0 3.1000001

norm.weight f4 [32]
000000 00 00 80 3f 00 00 00 40 00 00 40 40 00 00 80 40
       1.0 2.0 3.0 4.0
000010 00 00 a0 40 00 00 c0 40 00 00 e0 40 00 00 00 41
       5.0 6.0 7.0 8.0
000020 00 00 10 41 00 00 20 41 00 00 30 41 00 00 40 41
       9.0 10.0 11.0 12.0
000030 00 00 50 41 00 00 60 41 00 00 70 41 00 00 80 41
       13.0 14.0 15.0 16.0
000040 00 00 88 41 00 00 90 41 00 00 98 41 00 00 a0 41
       17.0 18.0 19.0 20.0
000050 00 00 a8 41 00 00 b0 41 00 00 b8 41 00 00 c0 41
       21.0 22.0 23.0 24.0
000060 00 00 c8 41 00 00 d0 41 00 00 d8 41 00 00 e0 41
       25.0 26.0 27.0 28.0
000070 00 00 e8 41 00 00 f0 41 00 00 f8 41 00 00 00 42
       29.0 30.0 31.0 32.0
