unit-test/safetensors/test_embedding.safetensors (safetensors, 400 bytes, 1 tensors)

embed.weight f4 [10, 8]
0.0 1.0 2.0 3.0 4.0 5.0 6.0 7.0
100.0 101.0 102.0 103.0 104.0 105.0 106.0 107.0
200.0 201.0 202.0 203.0 204.0 205.0 206.0 207.0
300.0 301.0 302.0 303.0 304.0 305.0 306.0 307.0
400.0 401.0 402.0 403.0 404.0 405.0 406.0 407.0
500.0 501.0 502.0 503.0 504.0 505.0 506.0 507.0
600.0 601.0 602.0 603.0 604.0 605.0 606.0 607.0
700.0 701.0 702.0 703.0 704.0 705.0 706.0 707.0
800.0 801.0 802.0 803.0 804.0 805.0 806.0 807.0
900.0 901.0 902.0 903.0 904.0 905.0 906.0 907.0
00000000: 0000 0000 0000 803f 0000 0040 0000 4040
00000010: 0000 8040 0000 a040 0000 c040 0000 e040
00000020: 0000 c842 0000 ca42 0000 cc42 0000 ce42
00000030: 0000 d042 0000 d242 0000 d442 0000 d642
00000040: 0000 4843 0000 4943 0000 4a43 0000 4b43
00000050: 0000 4c43 0000 4d43 0000 4e43 0000 4f43
00000060: 0000 9643 0080 9643 0000 9743 0080 9743
00000070: 0000 9843 0080 9843 0000 9943 0080 9943
00000080: 0000 c843 0080 c843 0000 c943 0080 c943
00000090: 0000 ca43 0080 ca43 0000 cb43 0080 cb43
000000a0: 0000 fa43 0080 fa43 0000 fb43 0080 fb43
000000b0: 0000 fc43 0080 fc43 0000 fd43 0080 fd43
000000c0: 0000 1644 0040 1644 0080 1644 00c0 1644
000000d0: 0000 1744 0040 1744 0080 1744 00c0 1744
000000e0: 0000 2f44 0040 2f44 0080 2f44 00c0 2f44
000000f0: 0000 3044 0040 3044 0080 3044 00c0 3044
00000100: 0000 4844 0040 4844 0080 4844 00c0 4844
00000110: 0000 4944 0040 4944 0080 4944 00c0 4944
00000120: 0000 6144 0040 6144 0080 6144 00c0 6144
00000130: 0000 6244 0040 6244 0080 6244 00c0 6244
